def @main(%input: Tensor[(1, 3, 128, 128), int8], %label: Tensor[(1, 10), float32], %v0_weight: Tensor[(16, 3, 3, 3), int8], %v0_bias: Tensor[(16), int32], %v0_zero_x: Tensor[(1), int8], %v0_zero_y: Tensor[(1), int8], %v0_scale: Tensor[(16), float32], %v1_conv_0_weight: Tensor[(16, 1, 3, 3), int8], %v1_conv_0_bias: Tensor[(16), int32], %v1_conv_0_zero_x: Tensor[(1), int8], %v1_conv_0_zero_y: Tensor[(1), int8], %v1_conv_0_scale: Tensor[(16), float32], %v1_conv_1_weight: Tensor[(8, 16, 1, 1), int8], %v1_conv_1_bias: Tensor[(8), int32], %v1_conv_1_zero_x: Tensor[(1), int8], %v1_conv_1_zero_y: Tensor[(1), int8], %v1_conv_1_scale: Tensor[(8), float32], %v2_conv_0_weight: Tensor[(32, 8, 1, 1), int8], %v2_conv_0_bias: Tensor[(32), int32], %v2_conv_0_zero_x: Tensor[(1), int8], %v2_conv_0_zero_y: Tensor[(1), int8], %v2_conv_0_scale: Tensor[(32), float32], %v2_conv_1_weight: Tensor[(32, 1, 3, 3), int8], %v2_conv_1_bias: Tensor[(32), int32], %v2_conv_1_zero_x: Tensor[(1), int8], %v2_conv_1_zero_y: Tensor[(1), int8], %v2_conv_1_scale: Tensor[(32), float32], %v2_conv_2_weight: Tensor[(16, 32, 1, 1), int8], %v2_conv_2_bias: Tensor[(16), int32], %v2_conv_2_zero_x: Tensor[(1), int8], %v2_conv_2_zero_y: Tensor[(1), int8], %v2_conv_2_scale: Tensor[(16), float32], %v3_conv_0_weight: Tensor[(48, 16, 1, 1), int8], %v3_conv_0_bias: Tensor[(48), int32], %v3_conv_0_zero_x: Tensor[(1), int8], %v3_conv_0_zero_y: Tensor[(1), int8], %v3_conv_0_scale: Tensor[(48), float32], %v3_conv_1_weight: Tensor[(48, 1, 3, 3), int8], %v3_conv_1_bias: Tensor[(48), int32], %v3_conv_1_zero_x: Tensor[(1), int8], %v3_conv_1_zero_y: Tensor[(1), int8], %v3_conv_1_scale: Tensor[(48), float32], %v3_conv_2_weight: Tensor[(16, 48, 1, 1), int8], %v3_conv_2_bias: Tensor[(16), int32], %v3_conv_2_zero_x: Tensor[(1), int8], %v3_conv_2_zero_y: Tensor[(1), int8], %v3_conv_2_scale: Tensor[(16), float32], %v3_qadd_zero_x1: Tensor[(1), int8], %v3_qadd_zero_x2: Tensor[(1), int8], %v3_qadd_scale_x1: Tensor[(1), float32], %v3_qadd_scale_x2: Tensor[(1), float32], %v3_qadd_zero_y: Tensor[(1), int8], %v3_qadd_scale_y: Tensor[(1), float32], %v4_conv_0_weight: Tensor[(48, 16, 1, 1), int8], %v4_conv_0_bias: Tensor[(48), int32], %v4_conv_0_zero_x: Tensor[(1), int8], %v4_conv_0_zero_y: Tensor[(1), int8], %v4_conv_0_scale: Tensor[(48), float32], %v4_conv_1_weight: Tensor[(48, 1, 7, 7), int8], %v4_conv_1_bias: Tensor[(48), int32], %v4_conv_1_zero_x: Tensor[(1), int8], %v4_conv_1_zero_y: Tensor[(1), int8], %v4_conv_1_scale: Tensor[(48), float32], %v4_conv_2_weight: Tensor[(24, 48, 1, 1), int8], %v4_conv_2_bias: Tensor[(24), int32], %v4_conv_2_zero_x: Tensor[(1), int8], %v4_conv_2_zero_y: Tensor[(1), int8], %v4_conv_2_scale: Tensor[(24), float32], %v5_conv_0_weight: Tensor[(120, 24, 1, 1), int8], %v5_conv_0_bias: Tensor[(120), int32], %v5_conv_0_zero_x: Tensor[(1), int8], %v5_conv_0_zero_y: Tensor[(1), int8], %v5_conv_0_scale: Tensor[(120), float32], %v5_conv_1_weight: Tensor[(120, 1, 3, 3), int8], %v5_conv_1_bias: Tensor[(120), int32], %v5_conv_1_zero_x: Tensor[(1), int8], %v5_conv_1_zero_y: Tensor[(1), int8], %v5_conv_1_scale: Tensor[(120), float32], %v5_conv_2_weight: Tensor[(24, 120, 1, 1), int8], %v5_conv_2_bias: Tensor[(24), int32], %v5_conv_2_zero_x: Tensor[(1), int8], %v5_conv_2_zero_y: Tensor[(1), int8], %v5_conv_2_scale: Tensor[(24), float32], %v5_qadd_zero_x1: Tensor[(1), int8], %v5_qadd_zero_x2: Tensor[(1), int8], %v5_qadd_scale_x1: Tensor[(1), float32], %v5_qadd_scale_x2: Tensor[(1), float32], %v5_qadd_zero_y: Tensor[(1), int8], %v5_qadd_scale_y: Tensor[(1), float32], %v6_conv_0_weight: Tensor[(120, 24, 1, 1), int8], %v6_conv_0_bias: Tensor[(120), int32], %v6_conv_0_zero_x: Tensor[(1), int8], %v6_conv_0_zero_y: Tensor[(1), int8], %v6_conv_0_scale: Tensor[(120), float32], %v6_conv_1_weight: Tensor[(120, 1, 3, 3), int8], %v6_conv_1_bias: Tensor[(120), int32], %v6_conv_1_zero_x: Tensor[(1), int8], %v6_conv_1_zero_y: Tensor[(1), int8], %v6_conv_1_scale: Tensor[(120), float32], %v6_conv_2_weight: Tensor[(40, 120, 1, 1), int8], %v6_conv_2_bias: Tensor[(40), int32], %v6_conv_2_zero_x: Tensor[(1), int8], %v6_conv_2_zero_y: Tensor[(1), int8], %v6_conv_2_scale: Tensor[(40), float32], %v7_conv_0_weight: Tensor[(160, 40, 1, 1), int8], %v7_conv_0_bias: Tensor[(160), int32], %v7_conv_0_zero_x: Tensor[(1), int8], %v7_conv_0_zero_y: Tensor[(1), int8], %v7_conv_0_scale: Tensor[(160), float32], %v7_conv_1_weight: Tensor[(160, 1, 7, 7), int8], %v7_conv_1_bias: Tensor[(160), int32], %v7_conv_1_zero_x: Tensor[(1), int8], %v7_conv_1_zero_y: Tensor[(1), int8], %v7_conv_1_scale: Tensor[(160), float32], %v7_conv_2_weight: Tensor[(40, 160, 1, 1), int8], %v7_conv_2_bias: Tensor[(40), int32], %v7_conv_2_zero_x: Tensor[(1), int8], %v7_conv_2_zero_y: Tensor[(1), int8], %v7_conv_2_scale: Tensor[(40), float32], %v7_qadd_zero_x1: Tensor[(1), int8], %v7_qadd_zero_x2: Tensor[(1), int8], %v7_qadd_scale_x1: Tensor[(1), float32], %v7_qadd_scale_x2: Tensor[(1), float32], %v7_qadd_zero_y: Tensor[(1), int8], %v7_qadd_scale_y: Tensor[(1), float32], %v8_conv_0_weight: Tensor[(160, 40, 1, 1), int8], %v8_conv_0_bias: Tensor[(160), int32], %v8_conv_0_zero_x: Tensor[(1), int8], %v8_conv_0_zero_y: Tensor[(1), int8], %v8_conv_0_scale: Tensor[(160), float32], %v8_conv_1_weight: Tensor[(160, 1, 5, 5), int8], %v8_conv_1_bias: Tensor[(160), int32], %v8_conv_1_zero_x: Tensor[(1), int8], %v8_conv_1_zero_y: Tensor[(1), int8], %v8_conv_1_scale: Tensor[(160), float32], %v8_conv_2_weight: Tensor[(48, 160, 1, 1), int8], %v8_conv_2_bias: Tensor[(48), int32], %v8_conv_2_zero_x: Tensor[(1), int8], %v8_conv_2_zero_y: Tensor[(1), int8], %v8_conv_2_scale: Tensor[(48), float32], %v9_conv_0_weight: Tensor[(144, 48, 1, 1), int8], %v9_conv_0_bias: Tensor[(144), int32], %v9_conv_0_zero_x: Tensor[(1), int8], %v9_conv_0_zero_y: Tensor[(1), int8], %v9_conv_0_scale: Tensor[(144), float32], %v9_conv_1_weight: Tensor[(144, 1, 3, 3), int8], %v9_conv_1_bias: Tensor[(144), int32], %v9_conv_1_zero_x: Tensor[(1), int8], %v9_conv_1_zero_y: Tensor[(1), int8], %v9_conv_1_scale: Tensor[(144), float32], %v9_conv_2_weight: Tensor[(48, 144, 1, 1), int8], %v9_conv_2_bias: Tensor[(48), int32], %v9_conv_2_zero_x: Tensor[(1), int8], %v9_conv_2_zero_y: Tensor[(1), int8], %v9_conv_2_scale: Tensor[(48), float32], %v9_qadd_zero_x1: Tensor[(1), int8], %v9_qadd_zero_x2: Tensor[(1), int8], %v9_qadd_scale_x1: Tensor[(1), float32], %v9_qadd_scale_x2: Tensor[(1), float32], %v9_qadd_zero_y: Tensor[(1), int8], %v9_qadd_scale_y: Tensor[(1), float32], %v10_conv_0_weight: Tensor[(192, 48, 1, 1), int8], %v10_conv_0_bias: Tensor[(192), int32], %v10_conv_0_zero_x: Tensor[(1), int8], %v10_conv_0_zero_y: Tensor[(1), int8], %v10_conv_0_scale: Tensor[(192), float32], %v10_conv_1_weight: Tensor[(192, 1, 3, 3), int8], %v10_conv_1_bias: Tensor[(192), int32], %v10_conv_1_zero_x: Tensor[(1), int8], %v10_conv_1_zero_y: Tensor[(1), int8], %v10_conv_1_scale: Tensor[(192), float32], %v10_conv_2_weight: Tensor[(48, 192, 1, 1), int8], %v10_conv_2_bias: Tensor[(48), int32], %v10_conv_2_zero_x: Tensor[(1), int8], %v10_conv_2_zero_y: Tensor[(1), int8], %v10_conv_2_scale: Tensor[(48), float32], %v10_qadd_zero_x1: Tensor[(1), int8], %v10_qadd_zero_x2: Tensor[(1), int8], %v10_qadd_scale_x1: Tensor[(1), float32], %v10_qadd_scale_x2: Tensor[(1), float32], %v10_qadd_zero_y: Tensor[(1), int8], %v10_qadd_scale_y: Tensor[(1), float32], %v11_conv_0_weight: Tensor[(240, 48, 1, 1), int8], %v11_conv_0_bias: Tensor[(240), int32], %v11_conv_0_zero_x: Tensor[(1), int8], %v11_conv_0_zero_y: Tensor[(1), int8], %v11_conv_0_scale: Tensor[(240), float32], %v11_conv_1_weight: Tensor[(240, 1, 7, 7), int8], %v11_conv_1_bias: Tensor[(240), int32], %v11_conv_1_zero_x: Tensor[(1), int8], %v11_conv_1_zero_y: Tensor[(1), int8], %v11_conv_1_scale: Tensor[(240), float32], %v11_conv_2_weight: Tensor[(96, 240, 1, 1), int8], %v11_conv_2_bias: Tensor[(96), int32], %v11_conv_2_zero_x: Tensor[(1), int8], %v11_conv_2_zero_y: Tensor[(1), int8], %v11_conv_2_scale: Tensor[(96), float32], %v12_conv_0_weight: Tensor[(384, 96, 1, 1), int8], %v12_conv_0_bias: Tensor[(384), int32], %v12_conv_0_zero_x: Tensor[(1), int8], %v12_conv_0_zero_y: Tensor[(1), int8], %v12_conv_0_scale: Tensor[(384), float32], %v12_conv_1_weight: Tensor[(384, 1, 5, 5), int8], %v12_conv_1_bias: Tensor[(384), int32], %v12_conv_1_zero_x: Tensor[(1), int8], %v12_conv_1_zero_y: Tensor[(1), int8], %v12_conv_1_scale: Tensor[(384), float32], %v12_conv_2_weight: Tensor[(96, 384, 1, 1), int8], %v12_conv_2_bias: Tensor[(96), int32], %v12_conv_2_zero_x: Tensor[(1), int8], %v12_conv_2_zero_y: Tensor[(1), int8], %v12_conv_2_scale: Tensor[(96), float32], %v12_qadd_zero_x1: Tensor[(1), int8], %v12_qadd_zero_x2: Tensor[(1), int8], %v12_qadd_scale_x1: Tensor[(1), float32], %v12_qadd_scale_x2: Tensor[(1), float32], %v12_qadd_zero_y: Tensor[(1), int8], %v12_qadd_scale_y: Tensor[(1), float32], %v13_conv_0_weight: Tensor[(384, 96, 1, 1), int8], %v13_conv_0_bias: Tensor[(384), int32], %v13_conv_0_zero_x: Tensor[(1), int8], %v13_conv_0_zero_y: Tensor[(1), int8], %v13_conv_0_scale: Tensor[(384), float32], %v13_conv_1_weight: Tensor[(384, 1, 5, 5), int8], %v13_conv_1_bias: Tensor[(384), int32], %v13_conv_1_zero_x: Tensor[(1), int8], %v13_conv_1_zero_y: Tensor[(1), int8], %v13_conv_1_scale: Tensor[(384), float32], %v13_conv_2_weight: Tensor[(96, 384, 1, 1), int8], %v13_conv_2_bias: Tensor[(96), int32], %v13_conv_2_zero_x: Tensor[(1), int8], %v13_conv_2_zero_y: Tensor[(1), int8], %v13_conv_2_scale: Tensor[(96), float32], %v13_qadd_zero_x1: Tensor[(1), int8], %v13_qadd_zero_x2: Tensor[(1), int8], %v13_qadd_scale_x1: Tensor[(1), float32], %v13_qadd_scale_x2: Tensor[(1), float32], %v13_qadd_zero_y: Tensor[(1), int8], %v13_qadd_scale_y: Tensor[(1), float32], %v14_conv_0_weight: Tensor[(576, 96, 1, 1), int8], %v14_conv_0_bias: Tensor[(576), int32], %v14_conv_0_zero_x: Tensor[(1), int8], %v14_conv_0_zero_y: Tensor[(1), int8], %v14_conv_0_scale: Tensor[(576), float32], %v14_conv_1_weight: Tensor[(576, 1, 3, 3), int8], %v14_conv_1_bias: Tensor[(576), int32], %v14_conv_1_zero_x: Tensor[(1), int8], %v14_conv_1_zero_y: Tensor[(1), int8], %v14_conv_1_scale: Tensor[(576), float32], %v14_conv_2_weight: Tensor[(160, 576, 1, 1), int8], %v14_conv_2_bias: Tensor[(160), int32], %v14_conv_2_zero_x: Tensor[(1), int8], %v14_conv_2_zero_y: Tensor[(1), int8], %v14_conv_2_scale: Tensor[(160), float32], %v15_weight: Tensor[(10, 160, 1, 1), int8], %v15_bias: Tensor[(10), int32], %v15_zero_x: Tensor[(1), int8], %v15_zero_y: Tensor[(1), int8], %v15_scale: Tensor[(10), float32]) -> float32 {
  %0 = nn.mcuconv2d(%input, %v0_weight, %v0_bias, %v0_zero_x, %v0_zero_y, %v0_scale, strides=[2, 2], padding=[1, 1, 1, 1]) /* ty=Tensor[(1, 16, 64, 64), int32] */;
  %1 = nn.mcutruncate(%0) /* ty=Tensor[(1, 16, 64, 64), int8] */;
  %2 = nn.mcuconv2d(%1, %v1_conv_0_weight, %v1_conv_0_bias, %v1_conv_0_zero_x, %v1_conv_0_zero_y, %v1_conv_0_scale, padding=[1, 1, 1, 1], groups=16) /* ty=Tensor[(1, 16, 64, 64), int32] */;
  %3 = nn.mcutruncate(%2) /* ty=Tensor[(1, 16, 64, 64), int8] */;
  %4 = nn.mcuconv2d(%3, %v1_conv_1_weight, %v1_conv_1_bias, %v1_conv_1_zero_x, %v1_conv_1_zero_y, %v1_conv_1_scale, padding=[0, 0, 0, 0]) /* ty=Tensor[(1, 8, 64, 64), int32] */;
  %5 = nn.mcutruncate(%4) /* ty=Tensor[(1, 8, 64, 64), int8] */;
  %6 = nn.mcuconv2d(%5, %v2_conv_0_weight, %v2_conv_0_bias, %v2_conv_0_zero_x, %v2_conv_0_zero_y, %v2_conv_0_scale, padding=[0, 0, 0, 0]) /* ty=Tensor[(1, 32, 64, 64), int32] */;
  %7 = nn.mcutruncate(%6) /* ty=Tensor[(1, 32, 64, 64), int8] */;
  %8 = nn.mcuconv2d(%7, %v2_conv_1_weight, %v2_conv_1_bias, %v2_conv_1_zero_x, %v2_conv_1_zero_y, %v2_conv_1_scale, strides=[2, 2], padding=[1, 1, 1, 1], groups=32) /* ty=Tensor[(1, 32, 32, 32), int32] */;
  %9 = nn.mcutruncate(%8) /* ty=Tensor[(1, 32, 32, 32), int8] */;
  %10 = nn.mcuconv2d(%9, %v2_conv_2_weight, %v2_conv_2_bias, %v2_conv_2_zero_x, %v2_conv_2_zero_y, %v2_conv_2_scale, padding=[0, 0, 0, 0]) /* ty=Tensor[(1, 16, 32, 32), int32] */;
  %11 = nn.mcutruncate(%10) /* ty=Tensor[(1, 16, 32, 32), int8] */;
  %12 = nn.mcuconv2d(%11, %v3_conv_0_weight, %v3_conv_0_bias, %v3_conv_0_zero_x, %v3_conv_0_zero_y, %v3_conv_0_scale, padding=[0, 0, 0, 0]) /* ty=Tensor[(1, 48, 32, 32), int32] */;
  %13 = nn.mcutruncate(%12) /* ty=Tensor[(1, 48, 32, 32), int8] */;
  %14 = nn.mcuconv2d(%13, %v3_conv_1_weight, %v3_conv_1_bias, %v3_conv_1_zero_x, %v3_conv_1_zero_y, %v3_conv_1_scale, padding=[1, 1, 1, 1], groups=48) /* ty=Tensor[(1, 48, 32, 32), int32] */;
  %15 = nn.mcutruncate(%14) /* ty=Tensor[(1, 48, 32, 32), int8] */;
  %16 = nn.mcuconv2d(%15, %v3_conv_2_weight, %v3_conv_2_bias, %v3_conv_2_zero_x, %v3_conv_2_zero_y, %v3_conv_2_scale, padding=[0, 0, 0, 0]) /* ty=Tensor[(1, 16, 32, 32), int32] */;
  %17 = nn.mcutruncate(%16) /* ty=Tensor[(1, 16, 32, 32), int8] */;
  %18 = nn.mcuadd(%11, %17, %v3_qadd_zero_x1, %v3_qadd_zero_x2, %v3_qadd_scale_x1, %v3_qadd_scale_x2, %v3_qadd_zero_y, %v3_qadd_scale_y, axis=0) /* ty=Tensor[(1, 16, 32, 32), int8] */;
  %19 = nn.mcutruncate(%18) /* ty=Tensor[(1, 16, 32, 32), int8] */;
  %20 = nn.mcuconv2d(%19, %v4_conv_0_weight, %v4_conv_0_bias, %v4_conv_0_zero_x, %v4_conv_0_zero_y, %v4_conv_0_scale, padding=[0, 0, 0, 0]) /* ty=Tensor[(1, 48, 32, 32), int32] */;
  %21 = nn.mcutruncate(%20) /* ty=Tensor[(1, 48, 32, 32), int8] */;
  %22 = nn.mcuconv2d(%21, %v4_conv_1_weight, %v4_conv_1_bias, %v4_conv_1_zero_x, %v4_conv_1_zero_y, %v4_conv_1_scale, strides=[2, 2], padding=[3, 3, 3, 3], groups=48) /* ty=Tensor[(1, 48, 16, 16), int32] */;
  %23 = nn.mcutruncate(%22) /* ty=Tensor[(1, 48, 16, 16), int8] */;
  %24 = nn.mcuconv2d(%23, %v4_conv_2_weight, %v4_conv_2_bias, %v4_conv_2_zero_x, %v4_conv_2_zero_y, %v4_conv_2_scale, padding=[0, 0, 0, 0]) /* ty=Tensor[(1, 24, 16, 16), int32] */;
  %25 = nn.mcutruncate(%24) /* ty=Tensor[(1, 24, 16, 16), int8] */;
  %26 = nn.mcuconv2d(%25, %v5_conv_0_weight, %v5_conv_0_bias, %v5_conv_0_zero_x, %v5_conv_0_zero_y, %v5_conv_0_scale, padding=[0, 0, 0, 0]) /* ty=Tensor[(1, 120, 16, 16), int32] */;
  %27 = nn.mcutruncate(%26) /* ty=Tensor[(1, 120, 16, 16), int8] */;
  %28 = nn.mcuconv2d(%27, %v5_conv_1_weight, %v5_conv_1_bias, %v5_conv_1_zero_x, %v5_conv_1_zero_y, %v5_conv_1_scale, padding=[1, 1, 1, 1], groups=120) /* ty=Tensor[(1, 120, 16, 16), int32] */;
  %29 = nn.mcutruncate(%28) /* ty=Tensor[(1, 120, 16, 16), int8] */;
  %30 = nn.mcuconv2d(%29, %v5_conv_2_weight, %v5_conv_2_bias, %v5_conv_2_zero_x, %v5_conv_2_zero_y, %v5_conv_2_scale, padding=[0, 0, 0, 0]) /* ty=Tensor[(1, 24, 16, 16), int32] */;
  %31 = nn.mcutruncate(%30) /* ty=Tensor[(1, 24, 16, 16), int8] */;
  %32 = nn.mcuadd(%25, %31, %v5_qadd_zero_x1, %v5_qadd_zero_x2, %v5_qadd_scale_x1, %v5_qadd_scale_x2, %v5_qadd_zero_y, %v5_qadd_scale_y, axis=0) /* ty=Tensor[(1, 24, 16, 16), int8] */;
  %33 = nn.mcutruncate(%32) /* ty=Tensor[(1, 24, 16, 16), int8] */;
  %34 = nn.mcuconv2d(%33, %v6_conv_0_weight, %v6_conv_0_bias, %v6_conv_0_zero_x, %v6_conv_0_zero_y, %v6_conv_0_scale, padding=[0, 0, 0, 0]) /* ty=Tensor[(1, 120, 16, 16), int32] */;
  %35 = nn.mcutruncate(%34) /* ty=Tensor[(1, 120, 16, 16), int8] */;
  %36 = nn.mcuconv2d(%35, %v6_conv_1_weight, %v6_conv_1_bias, %v6_conv_1_zero_x, %v6_conv_1_zero_y, %v6_conv_1_scale, strides=[2, 2], padding=[1, 1, 1, 1], groups=120) /* ty=Tensor[(1, 120, 8, 8), int32] */;
  %37 = nn.mcutruncate(%36) /* ty=Tensor[(1, 120, 8, 8), int8] */;
  %38 = nn.mcuconv2d(%37, %v6_conv_2_weight, %v6_conv_2_bias, %v6_conv_2_zero_x, %v6_conv_2_zero_y, %v6_conv_2_scale, padding=[0, 0, 0, 0]) /* ty=Tensor[(1, 40, 8, 8), int32] */;
  %39 = nn.mcutruncate(%38) /* ty=Tensor[(1, 40, 8, 8), int8] */;
  %40 = nn.mcuconv2d(%39, %v7_conv_0_weight, %v7_conv_0_bias, %v7_conv_0_zero_x, %v7_conv_0_zero_y, %v7_conv_0_scale, padding=[0, 0, 0, 0]) /* ty=Tensor[(1, 160, 8, 8), int32] */;
  %41 = nn.mcutruncate(%40) /* ty=Tensor[(1, 160, 8, 8), int8] */;
  %42 = nn.mcuconv2d(%41, %v7_conv_1_weight, %v7_conv_1_bias, %v7_conv_1_zero_x, %v7_conv_1_zero_y, %v7_conv_1_scale, padding=[3, 3, 3, 3], groups=160) /* ty=Tensor[(1, 160, 8, 8), int32] */;
  %43 = nn.mcutruncate(%42) /* ty=Tensor[(1, 160, 8, 8), int8] */;
  %44 = nn.mcuconv2d(%43, %v7_conv_2_weight, %v7_conv_2_bias, %v7_conv_2_zero_x, %v7_conv_2_zero_y, %v7_conv_2_scale, padding=[0, 0, 0, 0]) /* ty=Tensor[(1, 40, 8, 8), int32] */;
  %45 = nn.mcutruncate(%44) /* ty=Tensor[(1, 40, 8, 8), int8] */;
  %46 = nn.mcuadd(%39, %45, %v7_qadd_zero_x1, %v7_qadd_zero_x2, %v7_qadd_scale_x1, %v7_qadd_scale_x2, %v7_qadd_zero_y, %v7_qadd_scale_y, axis=0) /* ty=Tensor[(1, 40, 8, 8), int8] */;
  %47 = nn.mcutruncate(%46) /* ty=Tensor[(1, 40, 8, 8), int8] */;
  %48 = nn.mcuconv2d(%47, %v8_conv_0_weight, %v8_conv_0_bias, %v8_conv_0_zero_x, %v8_conv_0_zero_y, %v8_conv_0_scale, padding=[0, 0, 0, 0]) /* ty=Tensor[(1, 160, 8, 8), int32] */;
  %49 = nn.mcutruncate(%48) /* ty=Tensor[(1, 160, 8, 8), int8] */;
  %50 = nn.mcuconv2d(%49, %v8_conv_1_weight, %v8_conv_1_bias, %v8_conv_1_zero_x, %v8_conv_1_zero_y, %v8_conv_1_scale, padding=[2, 2, 2, 2], groups=160) /* ty=Tensor[(1, 160, 8, 8), int32] */;
  %51 = nn.mcutruncate(%50) /* ty=Tensor[(1, 160, 8, 8), int8] */;
  %52 = nn.mcuconv2d(%51, %v8_conv_2_weight, %v8_conv_2_bias, %v8_conv_2_zero_x, %v8_conv_2_zero_y, %v8_conv_2_scale, padding=[0, 0, 0, 0]) /* ty=Tensor[(1, 48, 8, 8), int32] */;
  %53 = nn.mcutruncate(%52) /* ty=Tensor[(1, 48, 8, 8), int8] */;
  %54 = nn.mcuconv2d(%53, %v9_conv_0_weight, %v9_conv_0_bias, %v9_conv_0_zero_x, %v9_conv_0_zero_y, %v9_conv_0_scale, padding=[0, 0, 0, 0]) /* ty=Tensor[(1, 144, 8, 8), int32] */;
  %55 = nn.mcutruncate(%54) /* ty=Tensor[(1, 144, 8, 8), int8] */;
  %56 = nn.mcuconv2d(%55, %v9_conv_1_weight, %v9_conv_1_bias, %v9_conv_1_zero_x, %v9_conv_1_zero_y, %v9_conv_1_scale, padding=[1, 1, 1, 1], groups=144) /* ty=Tensor[(1, 144, 8, 8), int32] */;
  %57 = nn.mcutruncate(%56) /* ty=Tensor[(1, 144, 8, 8), int8] */;
  %58 = nn.mcuconv2d(%57, %v9_conv_2_weight, %v9_conv_2_bias, %v9_conv_2_zero_x, %v9_conv_2_zero_y, %v9_conv_2_scale, padding=[0, 0, 0, 0]) /* ty=Tensor[(1, 48, 8, 8), int32] */;
  %59 = nn.mcutruncate(%58) /* ty=Tensor[(1, 48, 8, 8), int8] */;
  %60 = nn.mcuadd(%53, %59, %v9_qadd_zero_x1, %v9_qadd_zero_x2, %v9_qadd_scale_x1, %v9_qadd_scale_x2, %v9_qadd_zero_y, %v9_qadd_scale_y, axis=0) /* ty=Tensor[(1, 48, 8, 8), int8] */;
  %61 = nn.mcutruncate(%60) /* ty=Tensor[(1, 48, 8, 8), int8] */;
  %62 = nn.mcuconv2d(%61, %v10_conv_0_weight, %v10_conv_0_bias, %v10_conv_0_zero_x, %v10_conv_0_zero_y, %v10_conv_0_scale, padding=[0, 0, 0, 0]) /* ty=Tensor[(1, 192, 8, 8), int32] */;
  %63 = nn.mcutruncate(%62) /* ty=Tensor[(1, 192, 8, 8), int8] */;
  %64 = nn.mcuconv2d(%63, %v10_conv_1_weight, %v10_conv_1_bias, %v10_conv_1_zero_x, %v10_conv_1_zero_y, %v10_conv_1_scale, padding=[1, 1, 1, 1], groups=192) /* ty=Tensor[(1, 192, 8, 8), int32] */;
  %65 = nn.mcutruncate(%64) /* ty=Tensor[(1, 192, 8, 8), int8] */;
  %66 = nn.mcuconv2d(%65, %v10_conv_2_weight, %v10_conv_2_bias, %v10_conv_2_zero_x, %v10_conv_2_zero_y, %v10_conv_2_scale, padding=[0, 0, 0, 0]) /* ty=Tensor[(1, 48, 8, 8), int32] */;
  %67 = nn.mcutruncate(%66) /* ty=Tensor[(1, 48, 8, 8), int8] */;
  %68 = nn.mcuadd(%61, %67, %v10_qadd_zero_x1, %v10_qadd_zero_x2, %v10_qadd_scale_x1, %v10_qadd_scale_x2, %v10_qadd_zero_y, %v10_qadd_scale_y, axis=0) /* ty=Tensor[(1, 48, 8, 8), int8] */;
  %69 = nn.mcutruncate(%68) /* ty=Tensor[(1, 48, 8, 8), int8] */;
  %70 = nn.mcuconv2d(%69, %v11_conv_0_weight, %v11_conv_0_bias, %v11_conv_0_zero_x, %v11_conv_0_zero_y, %v11_conv_0_scale, padding=[0, 0, 0, 0]) /* ty=Tensor[(1, 240, 8, 8), int32] */;
  %71 = nn.mcutruncate(%70) /* ty=Tensor[(1, 240, 8, 8), int8] */;
  %72 = nn.mcuconv2d(%71, %v11_conv_1_weight, %v11_conv_1_bias, %v11_conv_1_zero_x, %v11_conv_1_zero_y, %v11_conv_1_scale, strides=[2, 2], padding=[3, 3, 3, 3], groups=240) /* ty=Tensor[(1, 240, 4, 4), int32] */;
  %73 = nn.mcutruncate(%72) /* ty=Tensor[(1, 240, 4, 4), int8] */;
  %74 = nn.mcuconv2d(%73, %v11_conv_2_weight, %v11_conv_2_bias, %v11_conv_2_zero_x, %v11_conv_2_zero_y, %v11_conv_2_scale, padding=[0, 0, 0, 0]) /* ty=Tensor[(1, 96, 4, 4), int32] */;
  %75 = nn.mcutruncate(%74) /* ty=Tensor[(1, 96, 4, 4), int8] */;
  %76 = nn.mcuconv2d(%75, %v12_conv_0_weight, %v12_conv_0_bias, %v12_conv_0_zero_x, %v12_conv_0_zero_y, %v12_conv_0_scale, padding=[0, 0, 0, 0]) /* ty=Tensor[(1, 384, 4, 4), int32] */;
  %77 = nn.mcutruncate(%76) /* ty=Tensor[(1, 384, 4, 4), int8] */;
  %78 = nn.mcuconv2d(%77, %v12_conv_1_weight, %v12_conv_1_bias, %v12_conv_1_zero_x, %v12_conv_1_zero_y, %v12_conv_1_scale, padding=[2, 2, 2, 2], groups=384) /* ty=Tensor[(1, 384, 4, 4), int32] */;
  %79 = nn.mcutruncate(%78) /* ty=Tensor[(1, 384, 4, 4), int8] */;
  %80 = nn.mcuconv2d(%79, %v12_conv_2_weight, %v12_conv_2_bias, %v12_conv_2_zero_x, %v12_conv_2_zero_y, %v12_conv_2_scale, padding=[0, 0, 0, 0]) /* ty=Tensor[(1, 96, 4, 4), int32] */;
  %81 = nn.mcutruncate(%80) /* ty=Tensor[(1, 96, 4, 4), int8] */;
  %82 = nn.mcuadd(%75, %81, %v12_qadd_zero_x1, %v12_qadd_zero_x2, %v12_qadd_scale_x1, %v12_qadd_scale_x2, %v12_qadd_zero_y, %v12_qadd_scale_y, axis=0) /* ty=Tensor[(1, 96, 4, 4), int8] */;
  %83 = nn.mcutruncate(%82) /* ty=Tensor[(1, 96, 4, 4), int8] */;
  %84 = nn.mcuconv2d(%83, %v13_conv_0_weight, %v13_conv_0_bias, %v13_conv_0_zero_x, %v13_conv_0_zero_y, %v13_conv_0_scale, padding=[0, 0, 0, 0]) /* ty=Tensor[(1, 384, 4, 4), int32] */;
  %85 = nn.mcutruncate(%84) /* ty=Tensor[(1, 384, 4, 4), int8] */;
  %86 = nn.mcuconv2d(%85, %v13_conv_1_weight, %v13_conv_1_bias, %v13_conv_1_zero_x, %v13_conv_1_zero_y, %v13_conv_1_scale, padding=[2, 2, 2, 2], groups=384) /* ty=Tensor[(1, 384, 4, 4), int32] */;
  %87 = nn.mcutruncate(%86) /* ty=Tensor[(1, 384, 4, 4), int8] */;
  %88 = nn.mcuconv2d(%87, %v13_conv_2_weight, %v13_conv_2_bias, %v13_conv_2_zero_x, %v13_conv_2_zero_y, %v13_conv_2_scale, padding=[0, 0, 0, 0]) /* ty=Tensor[(1, 96, 4, 4), int32] */;
  %89 = nn.mcutruncate(%88) /* ty=Tensor[(1, 96, 4, 4), int8] */;
  %90 = nn.mcuadd(%83, %89, %v13_qadd_zero_x1, %v13_qadd_zero_x2, %v13_qadd_scale_x1, %v13_qadd_scale_x2, %v13_qadd_zero_y, %v13_qadd_scale_y, axis=0) /* ty=Tensor[(1, 96, 4, 4), int8] */;
  %91 = nn.mcutruncate(%90) /* ty=Tensor[(1, 96, 4, 4), int8] */;
  %92 = nn.mcuconv2d(%91, %v14_conv_0_weight, %v14_conv_0_bias, %v14_conv_0_zero_x, %v14_conv_0_zero_y, %v14_conv_0_scale, padding=[0, 0, 0, 0]) /* ty=Tensor[(1, 576, 4, 4), int32] */;
  %93 = nn.mcutruncate(%92) /* ty=Tensor[(1, 576, 4, 4), int8] */;
  %94 = nn.mcuconv2d(%93, %v14_conv_1_weight, %v14_conv_1_bias, %v14_conv_1_zero_x, %v14_conv_1_zero_y, %v14_conv_1_scale, padding=[1, 1, 1, 1], groups=576) /* ty=Tensor[(1, 576, 4, 4), int32] */;
  %95 = nn.mcutruncate(%94) /* ty=Tensor[(1, 576, 4, 4), int8] */;
  %96 = nn.mcuconv2d(%95, %v14_conv_2_weight, %v14_conv_2_bias, %v14_conv_2_zero_x, %v14_conv_2_zero_y, %v14_conv_2_scale, padding=[0, 0, 0, 0]) /* ty=Tensor[(1, 160, 4, 4), int32] */;
  %97 = nn.mcutruncate(%96) /* ty=Tensor[(1, 160, 4, 4), int8] */;
  %98 = mcumean(%97, axis=[2, 3], keepdims=True) /* ty=Tensor[(1, 160, 1, 1), int8] */;
  %99 = nn.mcuconv2d(%98, %v15_weight, %v15_bias, %v15_zero_x, %v15_zero_y, %v15_scale, padding=[0, 0, 0, 0]) /* ty=Tensor[(1, 10, 1, 1), int32] */;
  %100 = nn.mcutruncate(%99) /* ty=Tensor[(1, 10, 1, 1), int8] */;
  %101 = reshape(%100, newshape=[0, 0]) /* ty=Tensor[(1, 10), int8] */;
  %102 = cast(%101, dtype="float32") /* ty=Tensor[(1, 10), float32] */;
  %103 = nn.log_softmax(%102) /* ty=Tensor[(1, 10), float32] */;
  nn.cross_entropy_with_logits(%103, %label) /* ty=float32 */
}
